ReinforcementLearning/SnakeAI/model.pth (torch, 17216 bytes, 4 tensors)

linear1.weight f4 [256, 11]
0	0x3e534a3a	0.20633784
1	0xbc84de90	-0.016219407
2	0x3e5829eb	0.2110974
3	0xbe482899	-0.19546737
4	0x3d9ac379	0.07556815
5	0xbb35a4a6	-0.0027716546
6	0x3e35b871	0.1774614
7	0xbe115598	-0.14192808
8	0x3d65a510	0.05606562
9	0x3c9ee267	0.019395066
10	0xbde25843	-0.11051991
11	0x3e4ca518	0.19984853
12	0x3e51400c	0.20434588
13	0xbdd19251	-0.10232986
14	0xbc8c6521	-0.017138066
15	0xbe31150b	-0.17293184
16	0x3d18253c	0.037144884
17	0xbd850e02	-0.064968124
18	0x3d5f452b	0.054509323
19	0xbe87ab98	-0.26498103
20	0xbe4948b8	-0.19656646
21	0xbc3e4451	-0.011612968
22	0x3e8b6442	0.27224928
23	0x3d9179ba	0.071032956
24	0xbe120e23	-0.14263205
25	0xbe158d90	-0.14604783
26	0x3dcb66bd	0.09931705
27	0xbdbe49b8	-0.092914045
28	0xbe959819	-0.29217604
29	0x3e6b5ae2	0.22983888
30	0x3d605134	0.05476494
31	0xbd860406	-0.06543736
32	0x3c849d19	0.016188191
33	0xbd040e4e	-0.032240205
34	0xbe7f171a	-0.24911156
35	0xbd5918f4	-0.053002313
36	0x3e38d092	0.18048313
37	0xbe0622b2	-0.13099173
38	0xba483a07	-0.0007638041
39	0xbe280484	-0.16407973
40	0x3e0da8e1	0.13833953
41	0xbe85e8ab	-0.26154074
42	0x3e0196d5	0.12655194
43	0xbd7586f8	-0.05994317
44	0xbe01803d	-0.12646575
45	0x3dbffc37	0.09374278
46	0x3d350989	0.044198547
47	0x3e6bb0de	0.23016688
48	0x3e046a85	0.12931259
49	0x3d802147	0.06256347
50	0x3e3ac76f	0.1824014
51	0xbcf77c04	-0.030210502
52	0xbcdb29fb	-0.026753416
53	0x3dd7dcd5	0.10540167
54	0x3d91557e	0.070963845
55	0x3dab8a4c	0.083759874
56	0x3d922d39	0.07137532
57	0x3cbc5f62	0.0229947
58	0xbdd2f2c3	-0.103002094
59	0xbb854b76	-0.0040678335
60	0x3e438310	0.19092965
61	0xba85fede	-0.0010223051
62	0xbe36ca9b	-0.17850725
63	0x3e926864	0.2859527
64	0x3dc2e8e2	0.09517075
65	0x3e88a249	0.26686314
66	0xbdb17a8b	-0.08665951
67	0xbd1de7fd	-0.03855132
68	0x3c2eef07	0.010677106
69	0x3e8be9a4	0.2732669
70	0x3e80f5a4	0.2518741
71	0x3b246899	0.002508676
72	0x3dfd54e5	0.12369708
73	0x3e3321fd	0.17493434
74	0x3d784727	0.06061473
75	0xbe8a9c1c	-0.27072227
76	0xbe12494f	-0.14285778
77	0x3e2bb082	0.16766551
78	0xbd72b86e	-0.059257917
79	0x3d2fc437	0.042911734
80	0x3de006cc	0.109387964
81	0x3d5248c5	0.05133893
82	0x3e4d748c	0.2006399
83	0xbe5aae7b	-0.21355622
84	0xbe5d6179	-0.21619214
85	0x3e533d23	0.2062879
86	0xbe2f909b	-0.17145006
87	0x3dbf7ee8	0.09350377
88	0xbe4d297c	-0.20035356
89	0xbe4879b1	-0.19577672
90	0x3e13743c	0.14399809
91	0xbe4b2d8b	-0.19841592
92	0x3e3ba3b2	0.18324164
93	0x3dbe8ed4	0.09304586
94	0x3e937c5f	0.28805825
95	0x3cfce74a	0.030872006
96	0xbdc79fb9	-0.097472616
97	0xbe1bfe46	-0.15233716
98	0xbe9676e7	-0.2938759
99	0x3d9a0d30	0.075220466
100	0x3e703311	0.2345698
101	0xbe79d4a7	-0.24397527
102	0xbe829cef	-0.25510356
103	0xbe83b7a1	-0.25726035
104	0x3cb397b9	0.021922933
105	0xbdfb8ea7	-0.12283068
106	0xbd99c4df	-0.07508253
107	0x3dbc10cb	0.091828905
108	0x3dc1b5fe	0.094585404
109	0xbd1cc0ec	-0.038269922
110	0x3e0f4265	0.13990171
111	0x3e47893f	0.19485949
112	0x3e9e5024	0.30920517
113	0x3ea27097	0.31726524
114	0xbe5e8ada	-0.21732655
115	0xbbc8480d	-0.0061121047
116	0xbd32e95f	-0.04367959
117	0xbc969de9	-0.018385844
118	0x3ea11758	0.31463122
119	0xbd96331c	-0.07333967
120	0xbd4c43e9	-0.04986945
121	0x3e1f31d9	0.15546359
122	0x3dc07dbe	0.093989834
123	0xbe9a7dfb	-0.3017424
124	0x3d5295cc	0.05141239
125	0x3d4dd4c9	0.050251756
126	0x3e8412c6	0.25795573
127	0xbe3e2a8a	-0.18570915
128	0x3df460fa	0.11932559
129	0x3e866599	0.26249388
130	0x3e48e0dd	0.19617029
131	0x3e3a0e77	0.1816958
132	0xbe715752	-0.23568466
133	0x3e065840	0.13119602
134	0xbd6db2fd	-0.058032025
135	0xbdea1e9d	-0.1143162
136	0x3e91ba50	0.28462458
137	0xbd4b1b1d	-0.049586404
138	0x3e4d805c	0.20068496
139	0x3e9aed05	0.30258957
140	0x3e4f18a2	0.2022424
141	0xbe6c6534	-0.23085481
142	0x3eae51f3	0.34046897
143	0xbdb083de	-0.08618902
144	0xbe2beef2	-0.16790369
145	0x3e0ec198	0.13941038
146	0xbe28d4ed	-0.16487475
147	0xbe76b55c	-0.2409262
148	0xbe2ad82b	-0.16684024
149	0xbce23d45	-0.027617106
150	0xbe86f48c	-0.2635845
151	0xbdb4cf90	-0.08828652
152	0x3da9897c	0.08278176
153	0x3e9b56bb	0.30339608
154	0xbe29a0f6	-0.16565308
155	0x3cadb733	0.02120552
156	0xbd6c2253	-0.05764992
157	0xbe2565cb	-0.16152112
158	0x3e29b751	0.16573836
159	0x3e880f8c	0.2657436
160	0x3e02a65e	0.12758777
161	0xbe888e3e	-0.26671022
162	0xbdbf3941	-0.09337092
163	0x3d8bd1b4	0.06827107
164	0xbe01b5e6	-0.12667045
165	0x3d891e8f	0.06695282
166	0xbdf01390	-0.11722481
167	0x3e6b16cf	0.2295792
168	0xbe6ee1e7	-0.23328362
169	0xbea4abab	-0.32162222
170	0x3e420626	0.18947658
171	0x3c5a6961	0.013330788
172	0xbd91caef	-0.07118785
173	0x3dc70639	0.09717984
174	0x3ea5ca88	0.32381082
175	0xbe79993c	-0.2437486
176	0xbea01ea7	-0.31273386
177	0x3df9888d	0.12184248
178	0xbd7d232a	-0.061801113
179	0x3e804bdb	0.25057873
180	0xbe036f0c	-0.1283533
181	0xbd0c27d6	-0.034217678
182	0x3e1458c4	0.14486986
183	0x3e6d90ed	0.23199816
184	0x3dcb51b1	0.09927691
185	0xbda64bbc	-0.08119914
186	0x3da182e1	0.07886291
187	0x3e18750c	0.148884
188	0xbc61445f	-0.013749211
189	0x3d6ee2bd	0.058321703
190	0xbdc58d07	-0.096460395
191	0x3b3bcfa3	0.0028657697
192	0xbe0acd72	-0.13554934
193	0x3d728eea	0.059218325
194	0x3e225393	0.15852194
195	0x3d1b0dca	0.037854947
196	0xbd90968c	-0.070599645
197	0x3e5607bf	0.20901392
198	0xbdd40986	-0.10353379
199	0xbe85f2bc	-0.26161754
200	0xbd61c902	-0.055123337
201	0xbe99714c	-0.2996925
202	0x3dea6ff2	0.11447133
203	0x3e3afcdb	0.18260519
204	0xbd133b9c	-0.03594552
205	0xbe1ea405	-0.15492256
206	0xbd4eff30	-0.050536335
207	0xbe18fa65	-0.14939268
208	0x3e6b6d90	0.22991014
209	0x3d9a0731	0.07520903
210	0x3d0d8c67	0.034557726
211	0xbbe2072b	-0.006897827
212	0x3e4a0091	0.19726779
213	0x3e608d52	0.2192891
214	0xbcb4b64d	-0.022059584
215	0xbe56f903	-0.20993428
216	0x3cc13e39	0.02358924
217	0xbe69d562	-0.22835305
218	0x3df04158	0.11731213
219	0xbe88b7dc	-0.26702774
220	0x3e75ffaf	0.24023317
221	0xbea0cc00	-0.3140564
222	0x3e7aba60	0.24485159
223	0x3d6d03f2	0.05786509
224	0x3d10186a	0.035179533
225	0x3d97b9ab	0.0740846
226	0xbe7de855	-0.24795659
227	0xbc0f35a0	-0.008740813
228	0x3e841a3e	0.2580127
229	0xbe3aa874	-0.18228322
230	0xbccf75c4	-0.02532471
231	0xbe447a6a	-0.19187322
232	0x3e88e594	0.26737654
233	0xbe04e323	-0.12977271
234	0xbe250adf	-0.16117428
235	0xbd71893c	-0.058968768
236	0xbe69735c	-0.22797912
237	0xbdcf8100	-0.10132027
238	0xbe4158c3	-0.18881516
239	0x3e5c2a9c	0.21500629
240	0x3e3a82bf	0.18213938
241	0x3e4efa1b	0.20212595
242	0xbdc02311	-0.093816884
243	0xbdcf8b43	-0.10133984
244	0x3e458e3c	0.1929254
245	0x3e3fbfbb	0.18725483
246	0xbe43c2d9	-0.19117297
247	0xbe44b8f3	-0.19211178
248	0x3c41c475	0.011826624
249	0x3df39368	0.1189335
250	0xbd5c8e18	-0.05384645
251	0xbd3bfbbe	-0.045894377
252	0xbe96b2cd	-0.2943329
253	0xbe8a1353	-0.26967868
254	0x3de9ddb6	0.11419241
255	0xbe7d877d	-0.24758716

linear1.bias f4 [256]
0	0xbe1709f8	-0.14749897
1	0x3e6c2ae6	0.2306324
2	0xbe4fdc8c	-0.20298976
3	0x3e0dc768	0.13845599
4	0x3e092cc9	0.1339599
5	0x3eb36118	0.35035014
6	0x3cba74ce	0.022760775
7	0x3e43edec	0.19133729
8	0x3bc968b3	0.0061465143
9	0xbaa889d0	-0.0012858454
10	0xbddeff97	-0.10888594
11	0xbe10f020	-0.141541
12	0x3df7f02d	0.12106357
13	0xbdd11a84	-0.102101356
14	0x3d44db2e	0.04806059
15	0xbe086e02	-0.13323215
16	0x3ea82c5a	0.32846338
17	0xbeb327de	-0.34991354
18	0xbe2e2ce5	-0.17009313
19	0x3e380155	0.17969258
20	0xbd2a311c	-0.04155074
21	0x3e7b9dfb	0.24571984
22	0x3e134aac	0.14383954
23	0x3e033616	0.12813601
24	0x3db3cc43	0.08779194
25	0xbe319025	-0.17340143
26	0xbe481f40	-0.19543171
27	0x3e6cd64c	0.23128623
28	0x3ea4bb90	0.3217435
29	0x3a336498	0.0006843298
30	0xbdbd8fb5	-0.092559256
31	0xbd7da413	-0.06192405
32	0xbe8cc9e1	-0.2749777
33	0x3ebfb99a	0.3744629
34	0x3c2aa5c2	0.010415496
35	0xbd61c9ac	-0.05512397
36	0x3e4f89d9	0.20267428
37	0xbe6e79d6	-0.23288664
38	0xbe2b94d5	-0.16755994
39	0xbcfc667b	-0.030810585
40	0x3d20a37a	0.039218403
41	0xbe6c8196	-0.23096308
42	0xbe47e295	-0.19520028
43	0x3e4b9eb9	0.19884767
44	0x3e96d673	0.29460487
45	0x3e9b8cda	0.303809
46	0x3e4237c9	0.18966593
47	0x3e64fb34	0.22361451
48	0x3e966758	0.2937572
49	0xbe4736d7	-0.19454513
50	0xbd0b496f	-0.03400558
51	0xbe436c8e	-0.19084379
52	0xbe11ec79	-0.14250363
53	0xbe711326	-0.23542461
54	0x3dfc8f69	0.12332041
55	0x3e379554	0.17928058
56	0xbc830747	-0.015994681
57	0x3e277379	0.16352643
58	0xbda7f0a4	-0.082001954
59	0xbe354c1a	-0.17704812
60	0xbe9c97ae	-0.30584472
61	0x3eabe28c	0.3357128
62	0x3e508ca6	0.20366153
63	0x3de9d91a	0.11418362
64	0x3b833988	0.004004661
65	0xbe30247b	-0.17201416
66	0x3e6afc26	0.2294775
67	0x3d50f703	0.05101682
68	0x3ec1881b	0.37799153
69	0x3d8c40f5	0.06848327
70	0x3cfcd21f	0.030861912
71	0xbcf745d8	-0.030184671
72	0xbe8aa93e	-0.27082247
73	0x3e4727a3	0.19448714
74	0xbe86c9ff	-0.26325986
75	0xbe2f42e4	-0.1711536
76	0x3d3511d4	0.044206455
77	0xbd5906e5	-0.05298509
78	0x3e52f59f	0.2060151
79	0x3e990d68	0.2989304
80	0x3ea1903d	0.31555358
81	0x3dd0b34b	0.101904474
82	0x3c1f9bac	0.009741705
83	0xbe35b940	-0.17746449
84	0x3d6a3148	0.057175905
85	0xbd9eea17	-0.07759493
86	0x3d6da89a	0.05802212
87	0xbbd1c338	-0.0064014457
88	0xbe6b9506	-0.23006067
89	0x3e0054ac	0.125323
90	0xbc95dbfe	-0.018293377
91	0xbda89480	-0.08231449
92	0xbe62cd52	-0.22148636
93	0x3e375edb	0.17907278
94	0xbd2399de	-0.03994166
95	0x3e94a8e9	0.29035118
96	0x3e4ee9cc	0.20206374
97	0x3e2c4647	0.16823684
98	0xbe68fc9e	-0.22752616
99	0xbe0d2af9	-0.13785924
100	0xbda9b904	-0.08287242
101	0xbe96fbaf	-0.29488894
102	0xbe1012a5	-0.14069612
103	0xbe4bdb72	-0.1990793
104	0xbde33a35	-0.110950865
105	0x3e672c3a	0.22575465
106	0x3ea4a5bc	0.32157695
107	0xbce4f70c	-0.027949832
108	0x3c54ce46	0.012988633
109	0x3e7de037	0.24792562
110	0xbdaea9f5	-0.085285105
111	0xbe80e5e7	-0.25175402
112	0xbe32c067	-0.17456208
113	0x3e062e1a	0.13103524
114	0xbde4adb8	-0.11165947
115	0x3df15fdc	0.11785862
116	0x3ea0a155	0.31373087
117	0xbe2d475a	-0.1692175
118	0x3dc9ee8b	0.098599516
119	0x3d1afe44	0.037840143
120	0x3e771498	0.2412895
121	0xbda5a9ce	-0.08089028
122	0xbd56b390	-0.052417338
123	0x3dc59e76	0.09649365
124	0x3c915ee8	0.01774545
125	0xbe6ff38e	-0.23432752
126	0x3c6ba604	0.014382843
127	0xbdb651b9	-0.08902306
128	0xbda176dd	-0.078839995
129	0x3deb3269	0.11484224
130	0xbd90f776	-0.070784494
131	0x3dd40a4d	0.10353527
132	0xbdd03be5	-0.10167674
133	0x3e817780	0.25286484
134	0x3e62254c	0.2208454
135	0xbdb39819	-0.08769245
136	0xbd80be57	-0.062863044
137	0x3e91816a	0.28419048
138	0xbd92b75f	-0.071638815
139	0x3dc3d814	0.09562698
140	0xbc142519	-0.009042048
141	0x3e87ffa0	0.26562214
142	0x3d637d1f	0.055539247
143	0xbe770c69	-0.24125828
144	0x3da0478c	0.078261465
145	0x3e80b94d	0.25141373
146	0xbdbc8f72	-0.092070475
147	0x3e405c86	0.18785295
148	0xbdbc5aba	-0.09196992
149	0x3e4a1878	0.19735897
150	0x3ea75d11	0.32688192
151	0x3d464d9f	0.04841387
152	0x3d23ba45	0.039972562
153	0xbe83527f	-0.25648877
154	0xbe4a39a9	-0.19748558
155	0x3ab77a71	0.0013998282
156	0x3c17ebb6	0.009272506
157	0x3e699bed	0.22813387
158	0xbdd57fb5	-0.10424749
159	0x3de23ace	0.11046372
160	0xbe966f50	-0.293818
161	0x3e01e0a6	0.12683353
162	0xbe65df87	-0.2244855
163	0x3e75f37f	0.24018668
164	0xbdced9f0	-0.10100162
165	0x3e15c85d	0.14627214
166	0x3ead8d8c	0.33897054
167	0x3d5a6fa9	0.053329144
168	0xbd5d1349	-0.05397347
169	0xbdca33ab	-0.09873136
170	0xbe04d392	-0.12971333
171	0xbe7b0e9a	-0.24517289
172	0xbe4dadfc	-0.20085901
173	0xbd4e9fa6	-0.05044522
174	0x3e15a84c	0.14614981
175	0x3ce8d7c3	0.028423196
176	0x3da23928	0.07921058
177	0xbd9ef3a2	-0.07761313
178	0x3e1b4b09	0.15165342
179	0x3e076a99	0.13224258
180	0xbe0160fc	-0.12634653
181	0x3dbfb881	0.09361363
182	0xbde32620	-0.11091256
183	0x3d5777fe	0.052604668
184	0x385c8970	5.2580086e-05
185	0x3d8bef31	0.068327315
186	0xbd83bce3	-0.06432512
187	0x3d479637	0.04872724
188	0x3dc011e2	0.09378411
189	0xbdff5c83	-0.12468817
190	0xbcf689d4	-0.030095018
191	0x3e1c8460	0.15284872
192	0x3e9d2b52	0.30697113
193	0x3cefecc7	0.029287709
194	0x3e1a1639	0.1504754
195	0xbe129f40	-0.14318562
196	0x3e0a6cc5	0.13518055
197	0x3b2260e9	0.0024777001
198	0xbe95eb64	-0.2928115
199	0x3d91657e	0.07099436
200	0xbd794e3b	-0.060865622
201	0x3e522f6e	0.20525905
202	0xbda213f4	-0.07913962
203	0xbe4641ad	-0.19360991
204	0x3e526958	0.20547998
205	0x3dccfccb	0.10009154
206	0x3e53a6ad	0.2066905
207	0xbe134d33	-0.14384918
208	0xbdbf36b1	-0.093366034
209	0xbe65651a	-0.22401848
210	0x3e0e93db	0.1392359
211	0xbe5e3f05	-0.21703728
212	0xbe683f0c	-0.226803
213	0xbd933b16	-0.07189004
214	0xbc5c4ffc	-0.013446804
215	0x3d113497	0.035450544
216	0xbe3c0e40	-0.18364811
217	0x3e7ed9bb	0.24887745
218	0x3e16b062	0.14715722
219	0xbe86fd52	-0.26365143
220	0x3e297858	0.16549814
221	0x3e961235	0.29310766
222	0x3e0a4842	0.13504127
223	0xbe56e968	-0.20987475
224	0x3d862f3d	0.06551979
225	0x3db273ba	0.08713479
226	0xbce343cb	-0.027742287
227	0x3df747ac	0.12074217
228	0x3e3e3e76	0.18578514
229	0x3eb97c24	0.36227524
230	0x3db91595	0.090373196
231	0xbdffc06e	-0.12487875
232	0xbdf6a31d	-0.1204283
233	0x3e303951	0.17209364
234	0xbc45dd61	-0.012076707
235	0x3cf000c6	0.029297244
236	0x3c32b3ca	0.010907123
237	0x3e5188ed	0.2046239
238	0x3e91a2cf	0.28444526
239	0x3d3f9237	0.0467703
240	0x3e6b7c5c	0.22996658
241	0x3e3e63b7	0.18592726
242	0x3e8cc5ea	0.27494746
243	0x3e55a71d	0.2086453
244	0xbe559a4a	-0.20859638
245	0x3e34841f	0.17628525
246	0x3e80655c	0.2507733
247	0xbe2227c4	-0.15835482
248	0xbe4ccc80	-0.19999886
249	0xbe12d569	-0.14339222
250	0xbdcb06cb	-0.09913405
251	0xbe19ddaa	-0.15025964
252	0xbd8950ab	-0.06704839
253	0xbdead605	-0.11466602
254	0x3bc5a63a	0.0060317786
255	0xbdf9225a	-0.12164755

linear2.weight f4 [3, 256]
0	0x3d084768	0.033271223
1	0xbd0b0b75	-0.033946473
2	0xbc2e505f	-0.010639279
3	0xbc9c4fd3	-0.019081032
4	0xbd969501	-0.07352639
5	0xbd85abcd	-0.06526909
6	0xbd813ad2	-0.06310047
7	0xbd29a966	-0.041421317
8	0xbe0a97cb	-0.13534467
9	0x3cbbd8c7	0.022930516
10	0xbdb76141	-0.089540966
11	0xbd7e50e9	-0.06208888
12	0xbdc34925	-0.095354356
13	0x3d208039	0.039184783
14	0xbd8abafd	-0.067739464
15	0xbb666902	-0.0035157804
16	0xbce890b9	-0.028389322
17	0x3c03eb1c	0.00805166
18	0x3ca1a0e6	0.019730043
19	0xbc28071f	-0.010255604
20	0x3bdb0475	0.006683881
21	0x3c660e65	0.014041518
22	0xbd0b9fe1	-0.03408802
23	0xbd0083f4	-0.03137584
24	0xbd2bf4f2	-0.041981645
25	0x3a90991b	0.0011031957
26	0xb9ec4741	-0.00045066516
27	0xbd960911	-0.07325948
28	0x3c224311	0.009903685
29	0xbdc3294c	-0.09529361
30	0xbd136d94	-0.035993174
31	0xbd544803	-0.05182649
32	0xbc2a48b0	-0.010393307
33	0xbd474c60	-0.04865682
34	0x3aabccf3	0.0013107344
35	0xbc9c7cd4	-0.019102491
36	0x3b981526	0.004641193
37	0xbd7129c2	-0.058877714
38	0x3cf35160	0.029701889
39	0x3c8e3875	0.017360905
40	0xbd2801d8	-0.041017383
41	0xbcb60bd6	-0.02222244
42	0x3d08b5cb	0.033376496
43	0xbd2c47d7	-0.0420607
44	0xbd56f8a6	-0.052483223
45	0xbd4d2661	-0.05008543
46	0xbb331a45	-0.002732889
47	0x3a673720	0.0008820165
48	0xbdb8e19d	-0.09027407
49	0xbcb0ba99	-0.021573352
50	0xbdc04d2f	-0.093897216
51	0x3ca82648	0.020526066
52	0xbcc18e4b	-0.02362742
53	0x3d2a5e1b	0.041593652
54	0xbd7f611b	-0.062348466
55	0x3c08dc22	0.008353265
56	0x3b152efb	0.0022763598
57	0xbdcdd5b7	-0.100505285
58	0x3c864644	0.016390927
59	0x3d312653	0.04324944
60	0xbd1b104f	-0.03785735
61	0xbc962b57	-0.018331213
62	0xbdc1f686	-0.09470849
63	0xbd998445	-0.074959315
64	0xbd6eb11d	-0.058274377
65	0xbdc0cb7c	-0.094138116
66	0xbc432ca9	-0.011912503
67	0xbc3b560e	-0.011434091
68	0xbd32f344	-0.043689027
69	0xbd6bc690	-0.05756241
70	0xbd4f91e9	-0.05067626
71	0xbc490a01	-0.0122704515
72	0xbdf1106d	-0.11770711
73	0xbd571905	-0.052514095
74	0xbd104cbd	-0.035229433
75	0x3d0ff6f3	0.03514762
76	0x3c031be9	0.00800226
77	0x3c923710	0.017848521
78	0xbd7bda8e	-0.061487727
79	0xbc595265	-0.013264273
80	0xbded6199	-0.11590881
81	0x3c371e5d	0.011176673
82	0xbd70e83e	-0.058815233
83	0xbb989229	-0.0046560955
84	0xbce650bc	-0.028114669
85	0x3bc69633	0.0060603856
86	0xbd877aa3	-0.06615188
87	0xbd952843	-0.0728307
88	0xbc0c396f	-0.008558615
89	0xbd10b447	-0.035328176
90	0xbd40383b	-0.046928626
91	0xbd928bf9	-0.07155604
92	0x3c0ba8cc	0.008524131
93	0x3d0cbc79	0.03435943
94	0x3ab64f4f	0.0013909134
95	0xbd8f8830	-0.070083976
96	0xbda44df2	-0.080226794
97	0xbdea0f5a	-0.11428709
98	0x3b62ce37	0.0034607777
99	0xbd0ead52	-0.03483326
100	0xbce7ce2e	-0.028296556
101	0xbd1a0336	-0.03760072
102	0xbda9b335	-0.08286134
103	0x3ccc0bb9	0.024907934
104	0x3c79a874	0.015237916
105	0xbdd1aad0	-0.10237658
106	0xbdb44dad	-0.08803878
107	0xbd5361d5	-0.05160697
108	0x3d39d26a	0.045366682
109	0xbd096798	-0.03354606
110	0xbdc71ca2	-0.09722258
111	0xbd3044e0	-0.043034434
112	0xbda3787d	-0.07981966
113	0xbdc4cf80	-0.0960989
114	0x3b13bfb1	0.0022544677
115	0xbc7011a0	-0.01465264
116	0xbc1859de	-0.00929877
117	0x3be82151	0.0070840498
118	0xbdb1a429	-0.08673889
119	0xbc9cc564	-0.019137092
120	0xbdeb8fc0	-0.115020275
121	0xbd6e29bb	-0.058145266
122	0x3c7cbd6d	0.015426022
123	0xbbc80630	-0.006104253
124	0xbc8d4fbb	-0.017249933
125	0x3d022cfe	0.03178119
126	0xbc83898a	-0.016056795
127	0x3d12537d	0.035724152
128	0x3d026646	0.031835817
129	0xbdb54f9f	-0.08853077
130	0xbd89e05a	-0.06732245
131	0xbdb4c820	-0.08827233
132	0x3bbec348	0.005821619
133	0xbdaba6fa	-0.083814576
134	0xbda307a3	-0.07960441
135	0x3c854fc1	0.016273381
136	0xbd55ad0b	-0.05216698
137	0xbd537509	-0.051625285
138	0x3a137918	0.00056256494
139	0xbc88d777	-0.016704304
140	0xbd53b115	-0.05168255
141	0xbd319a6d	-0.043360163
142	0x3ca4051d	0.02002197
143	0x3cbfa3fd	0.023393625
144	0xbdb15df1	-0.08660496
145	0x3c85fc17	0.016355557
146	0xbd81e35e	-0.06342195
147	0x3b40961a	0.0029386343
148	0xbddd2915	-0.107988514
149	0xbd80694d	-0.062700845
150	0xbd9396d5	-0.07206503
151	0xbdaea452	-0.08527435
152	0xbd335803	-0.043785106
153	0x3ddeba81	0.108754165
154	0x3b60827d	0.0034257465
155	0xbdaf3feb	-0.08557113
156	0xbb687b5d	-0.003547392
157	0x3caa860f	0.020815877
158	0x3d1209a4	0.035653725
159	0xbdb19cee	-0.0867251
160	0x3d31e2a6	0.04342904
161	0xbd93ad0a	-0.07210739
162	0xbda92e2a	-0.08260758
163	0xbd4fd478	-0.050739735
164	0xbc6ed5e0	-0.014577359
165	0xbc5053a8	-0.012715258
166	0xbd75c434	-0.060001567
167	0xbd6810be	-0.05665659
168	0x3c839f45	0.016067157
169	0xbd10627f	-0.035250183
170	0xbd67f0ef	-0.056626257
171	0x3d229612	0.0396939
172	0xbd8a1f75	-0.06744281
173	0xbd3e11cd	-0.046403695
174	0xbd4945e5	-0.049138922
175	0xbc4b4b6b	-0.012408118
176	0x3d049e14	0.032377318
177	0xbddd5454	-0.108071
178	0xbd7adfc3	-0.061248552
179	0xbd6f4733	-0.05841751
180	0xbbba6211	-0.00568796
181	0xbdaea854	-0.085282
182	0xbd5b4823	-0.05353559
183	0xbb9d8468	-0.004807044
184	0xbd094876	-0.03351637
185	0x3c4d7263	0.012539479
186	0x3d4f5b0a	0.05062393
187	0x3d841090	0.064484715
188	0x3cd2026a	0.025635917
189	0xbb0096e0	-0.0019621179
190	0xbd83d742	-0.064375415
191	0xbd1d1422	-0.03834928
192	0x3c9683d9	0.018373417
193	0xbd891296	-0.06692998
194	0x3cafb8a7	0.021450354
195	0xbd7c714f	-0.061631497
196	0xbd63fc15	-0.055660326
197	0xb9471c9b	-0.00018988775
198	0x3d9d2e99	0.076749034
199	0xbc2dc13c	-0.010605153
200	0xbd06e0a5	-0.03292908
201	0xbc8b1c2e	-0.01698121
202	0xbc5bee7a	-0.013423556
203	0xbd9b3e5a	-0.07580252
204	0xbcfd7e2f	-0.030943958
205	0xbd594c8e	-0.053051524
206	0x3c902e8c	0.01760032
207	0x3cc87209	0.024468439
208	0xbcbac7e7	-0.022800399
209	0xbb4f59c7	-0.0031639205
210	0xbc78d479	-0.015187376
211	0xbd75edd2	-0.060041256
212	0x3d9512f6	0.07279007
213	0xbdb8ae45	-0.09017614
214	0x3ae07c71	0.001712693
215	0x3ca65be6	0.020307492
216	0xbd5a67a2	-0.05332149
217	0x3b5c56bf	0.003362104
218	0x3c25f26b	0.010128598
219	0xbca6cd4e	-0.020361569
220	0xbd91e79e	-0.071242556
221	0xbdbb12d8	-0.091344535
222	0x3ce17e03	0.027525907
223	0xbd93f13c	-0.07223746
224	0xbd58e169	-0.052949343
225	0x3d34f62a	0.044180073
226	0xbd19d64d	-0.03755789
227	0xbc81f1d4	-0.015862383
228	0xbdd228bb	-0.10261675
229	0xbd4bb76e	-0.04973548
230	0xbdaaa512	-0.08332266
231	0xbd443904	-0.047905937
232	0xbca52d01	-0.020163061
233	0x3b20db69	0.002454484
234	0x3d6c8027	0.057739403
235	0xbd8294b4	-0.06376019
236	0xbdb3182f	-0.08744847
237	0xbdb4ed17	-0.08834284
238	0xbd02453f	-0.03180432
239	0xbda3c534	-0.07996598
240	0xbc823f35	-0.01589928
241	0xbdba2e50	-0.09090865
242	0xbd6d5fef	-0.057952818
243	0xbd2a5100	-0.041581154
244	0xbd398224	-0.045290127
245	0x3a482ec4	0.0007636363
246	0xbd549a13	-0.05190475
247	0xbd866a46	-0.06563239
248	0xbc7e166c	-0.0155082755
249	0xbda6ec76	-0.0815057
250	0xbdb6db56	-0.08928554
251	0xbba9a279	-0.005176839
252	0xbd81f7af	-0.0634607
253	0x3d11888b	0.03553061
254	0xbd4e2ef2	-0.05033774
255	0x3d47b13b	0.048753005

linear2.bias f4 [3]
0	0xbd60efcb	-0.054916184
1	0xbd2ec5f2	-0.042669244
2	0xbcb4b37f	-0.022058247
